…
incarnation: 12937461140491583715
, name: "/device:GPU:0"
device_type: "GPU"
memory_limit: 3524460544
locality {
  bus_id: 1
}
incarnation: 10748570588357338016
physical_device_desc: "device: 0, name: GeForce GTX 1050 Ti with Max-Q Design, pci bus id: 0000:01:00.0, compute capability: 6.1"
]
____________________________________________________________________________________________________
Layer (type)                     Output Shape          Param #     Connected to                     
====================================================================================================
lambda_1 (Lambda)                (None, 160, 320, 3)   0           lambda_input_1[0][0]             
____________________________________________________________________________________________________
cropping2d_1 (Cropping2D)        (None, 60, 320, 3)    0           lambda_1[0][0]                   
____________________________________________________________________________________________________
convolution2d_1 (Convolution2D)  (None, 28, 158, 24)   1824        cropping2d_1[0][0]               
____________________________________________________________________________________________________
convolution2d_2 (Convolution2D)  (None, 12, 77, 36)    21636       convolution2d_1[0][0]            
____________________________________________________________________________________________________
convolution2d_3 (Convolution2D)  (None, 4, 37, 48)     43248       convolution2d_2[0][0]            
____________________________________________________________________________________________________
convolution2d_4 (Convolution2D)  (None, 2, 35, 64)     27712       convolution2d_3[0][0]            
____________________________________________________________________________________________________
convolution2d_5 (Convolution2D)  (None, 1, 34, 64)     16448       convolution2d_4[0][0]            
____________________________________________________________________________________________________
flatten_1 (Flatten)              (None, 2176)          0           convolution2d_5[0][0]            
____________________________________________________________________________________________________
dense_1 (Dense)                  (None, 1164)          2534028     flatten_1[0][0]                  
____________________________________________________________________________________________________
dense_2 (Dense)                  (None, 100)           116500      dense_1[0][0]                    
____________________________________________________________________________________________________
dense_3 (Dense)                  (None, 50)            5050        dense_2[0][0]                    
____________________________________________________________________________________________________
dense_4 (Dense)                  (None, 10)            510         dense_3[0][0]                    
____________________________________________________________________________________________________
dense_5 (Dense)                  (None, 1)             11          dense_4[0][0]                    
====================================================================================================
Total params: 2,766,967
Trainable params: 2,766,967
Non-trainable params: 0
____________________________________________________________________________________________________
None
Epoch 1/10
   32/19406 [..............................] - ETA: 646s - lo
…
